app/data.pth (torch, 6911 bytes, 6 tensors)

l1.weight f4 [8, 78]
00000000: fd0c 233f a533 643d 818f e0bd c09b f03e
00000010: c394 903f 5968 223f 641e 943e 469f a6be
00000020: 9ddb 7f3f 1bcd 483f 9e35 573e b926 953f
00000030: 7500 4b3e 8f80 083f 6c5e 4fbf 9f5f e7be
00000040: 0405 1dbf 3de7 843d 260d 073e dcc8 293f
00000050: ac7f 95bf 9c08 86be 12a6 303c 3e24 3b3f
00000060: 79ef e0be aa07 3abe f605 093f a6db 3c3e
00000070: 779b 3e3f 43b9 e5be eddc 093e 2a80 e33e
00000080: 465c 3c3e ac90 473e 71b1 133f d69d 003f
00000090: 59d8 8cbe fe5f 4ebf f86d a33e 8e13 09bf
000000a0: c140 69bf e9ee 86be 0356 44be 3805 d93e
000000b0: 975f 253f 0459 d33e a808 e43e 2748 43be
000000c0: b1eb 783f 3e1b ee3e 7c51 423f 5c87 ae3f
000000d0: 0ba7 e63e 7617 653e f3a9 31bf b415 303e
000000e0: 0ed3 503e eade 423e 1007 2f3f aa5f 313f
000000f0: e6c8 5cbe 7069 fa3e 37c5 0fbf 6280 c03e
00000100: 1313 9cbf 9d8a 83be ad78 8c3e b849 f03c
00000110: b138 283f 4b9e 7abe d9fa 853f 7425 113f
00000120: 179f 4e3b b7b2 3dbf dd09 0e3f 85e5 a2be
00000130: adbc 173e 50da 403e f72e 16be 3bb6 f9bc
00000140: aec2 9c3e a141 8c3e 0c7f 8dbf 8cb9 a63f
00000150: c843 49be f42f 833d 5288 903e 7046 7c3f
00000160: 8a7c cb3d 44d4 35bf 4629 a23e 2686 e03e
00000170: 9d9e 23bf a26a 003f a2a1 e73e d483 783e
00000180: c7f1 a5be c3de 60be fb4b cfbe 630f 82bf
00000190: d1c4 473e b510 f0bb 8cb1 c93e dc93 863e
000001a0: 5884 8bbd dc1b 3bbe 77e2 663f c7ab 6e3e
000001b0: e8b7 01bf f876 b4bd 0abb 01bf d4bb 01bf
000001c0: 50a0 22bf 795e 1fbe a5ae 743f 751f 1abf
000001d0: 90b8 a8be 9651 a73e 2440 5b3f 9af4 413e
000001e0: 0daa c43d 371f fd3e bcc2 d9bd 7c62 a6bc
000001f0: d6ff 503e 17c3 1f3f d973 36be 866c d1bd
00000200: de7a b73e 8613 91bf 7a59 8c3e 7bec a53c
00000210: db67 b03f 99cb 123d c5e5 b63c 5d2d 3f3e
00000220: b8d7 273e 9f6d 863e bce8 823f 5cbd 183f
00000230: d4b3 ae3e 93e2 eabd 6409 ae3f 3d56 083f
00000240: 587f 973d b426 8c3f b534 b53e fa1e 033f
00000250: 911c 04bf 9a0c 18be bd8c 9c3c 5edc a03e
00000260: 8b02 22be 2099 4c3e a46a 4b3e d111 8d3d
00000270: 86b3 7ebe 9bca 3dbc 0aa6 16be 5376 2b3f
00000280: 1502 a4bf 3251 07be 635f 9e3e 3d14 b53e
00000290: 6658 ad3f 0539 15bf c9b3 403f b27d 6d3f
000002a0: f203 f93e 043d 273f 1c32 03bf 409f 003f
000002b0: 0ee9 83be 5942 083f 92cb f23e ea13 74be
000002c0: 702a abbf fb15 a1bf bbbb 073e 981b e9be
000002d0: eeb4 0cbf 0caa d93e 32be 15be a4c0 db3e
000002e0: 9a2f 15bf 5cb0 27be 967b 343f 6573 39be
000002f0: 2f2a 063f c433 1d3f fbe8 c33e 7e02 203f
00000300: bc3e 5c3f 858a e1be 93a5 a03e b1e9 e0be
00000310: c1a6 34be f332 c8be 30b0 243d ce93 bcbe
00000320: 599e d1be dfbc cebd b347 433f f2d9 043d
00000330: 2dbe b93f 1586 0bbe 42b5 4b3f e376 573d
00000340: becc 343f 8cbd 983e 8e39 5ebd a681 383f
00000350: 0e9f 263f b89f 7b3e bfe4 0f3f 2d8a 163f
00000360: ba26 813f aef5 a1be d842 a2be 388b a0be
00000370: f939 383f dd26 18be 94cf 593e 63c1 1a3f
00000380: 7622 b13e 7baa 24bd 8539 2fbf 9106 1dbe
00000390: f9e6 6cbe 7118 00bf bbf1 96bd 3a4c 5cbe
000003a0: ecbb 313f 4f7a d03d 06d0 3b3f 2345 edbd
000003b0: 6442 1b3e 17a7 723e 6795 283f 265c 393f
000003c0: 5397 ebbe d354 e83e 6e3f 033f 541d 4dbf
000003d0: 5e92 a53e bef3 003f 6f27 da3e 422c 303f
000003e0: 4cd9 23bf d74c a2bf 80db 833f 13e0 cc3e
000003f0: 2acb 19be dbfd 9dbe fa33 9a3f 2257 ad3f
0.63691694 0.055713315 -0.10964871 0.46993828 1.1295398 0.6344047 0.28929436 -0.3254339
0.9994448 0.78437966 0.21016547 1.1652442 0.19824393 0.53321165 -0.8100345 -0.4519014
-0.6133578 0.06489418 0.1318861 0.6632211 -1.1679587 -0.26178443 0.010781782 0.73102176
-0.43932703 -0.18166986 0.5352472 0.18443164 0.7445597 -0.44867906 0.13463183 0.4443372
0.18394575 0.19488782 0.5769263 0.5024084 -0.2750881 -0.8061522 0.31919837 -0.53545463
-0.9111443 -0.2635415 -0.19173436 0.42386794 0.64598984 0.4127885 0.44537854 -0.19070493
0.97234637 0.4650516 0.75905585 1.3635058 0.4504932 0.22372231 -0.69399947 0.17195779
0.20393011 0.19030347 0.6837015 0.69286597 -0.21561012 0.48908567 -0.561603 0.37597948
-1.2193321 -0.2569169 0.27435818 0.029332027 0.65711504 -0.24474446 1.0467178 0.56697774
0.003152793 -0.7410082 0.554838 -0.31815735 0.14818068 0.1883328 -0.14666353 -0.030482402
0.3061728 0.2739382 -1.1054397 1.3025374 -0.19654763 0.06405631 0.28229004 0.9854498
0.09935863 -0.71027017 0.31672114 0.43852347 -0.639139 0.5016271 0.45240504 0.24269038
-0.32411024 -0.21959977 -0.40487656 -1.0160946 0.19508673 -0.0073262104 0.3939327 0.26284683
-0.06812352 -0.18272346 0.9018931 0.23307715 -0.50671244 -0.08811754 -0.50676024 -0.5067723
-0.6352587 -0.15563382 0.95578986 -0.6020425 -0.3295331 0.32679433 0.85644746 0.18940964
0.09602747 0.49437878 -0.10632846 -0.020310633 0.20410094 0.6240706 -0.1781763 -0.10225777
0.35835928 -1.1334083 0.27412015 0.020254364 1.3781694 0.035838697 0.02232636 0.18669648
0.16390884 0.2625551 1.0227275 0.5966394 0.34121573 -0.11468997 1.3596616 0.5325659
0.07397336 1.0949311 0.35391775 0.5121914 -0.5160609 -0.14848557 0.019110078 0.31418127
-0.15821283 0.19980288 0.19864899 0.06888164 -0.2487317 -0.011583949 -0.14711776 0.66977423
-1.2813135 -0.13214567 0.3093215 0.35367003 1.3542602 -0.5829013 0.7527433 0.9276992
0.48635823 0.6532748 -0.51248336 0.50242996 -0.25763744 0.5322624 0.47420937 -0.23835722
-1.3372326 -1.2584833 0.13255207 -0.45528865 -0.54963577 0.42512548 -0.14623335 0.4292041
-0.5827576 -0.1637587 0.7050108 -0.18110426 0.5240812 0.61407113 0.38263687 0.625038
0.86033225 -0.44050995 0.31376323 -0.43928292 -0.17641737 -0.3910137 0.040207088 -0.36831516
-0.40941122 -0.10094618 0.7628128 0.03243441 1.4511162 -0.13625367 0.7957345 0.052603614
0.7062491 0.29832113 -0.054254107 0.7207283 0.6508645 0.24572647 0.56208414 0.5880459
1.0089943 -0.3163275 -0.31691623 -0.31356215 0.7196346 -0.14858575 0.21270591 0.60451335
0.34596604 -0.040201645 -0.6844714 -0.15334536 -0.23134984 -0.50037295 -0.07370325 -0.21513453
0.6942737 0.101795785 0.73364294 -0.115854524 0.15162045 0.23696552 0.6585297 0.7240623
-0.4601389 0.45377216 0.5126866 -0.80122876 0.32338232 0.5037192 0.4260821 0.6881753
-0.64003444 -1.26797 1.0301361 0.40014705 -0.15018907 -0.3085774 1.2047112 1.3542216

l1.bias f4 [8]
00000000: b231 8d3f 9ebf 013f fe31 153f 5e1d 4d3f
00000010: 02b8 883f 7910 783f 2d8b bf3e 8829 893f
1.1030791 0.5068301 0.5827941 0.80122936 1.0681155 0.96900135 0.3741087 1.0715799

l2.weight f4 [8, 8]
00000000: 8e91 993f 1cfa bfbf f70f 8d3f fe91 0abf
00000010: b546 52bf 8f3b e93f 6860 5d3f 6281 2f3f
00000020: 93cd 083f 7d0b 133d 0fe1 d3bf aa65 0440
00000030: fccd fe3f fa26 b03e 8231 8dbf 3d7f 233f
00000040: 8d30 b63f 9bee dcbf 5d25 1ebf e2ad c23d
00000050: d0e5 1a3e 967b 93be cf24 d43e ad27 e03f
00000060: 832f 743f a17c 0fbf 3f05 2d3f f56a 0140
00000070: 8fc5 ba3f ba87 a4bf 8149 4c3f a8ee 8bbf
00000080: 4e48 e93f afee 913f 1133 943f 56af e5be
00000090: 7a3d e53e e589 a1bf 8f20 7f3f f185 8fbf
000000a0: dc9c abbe f137 6cbe 642d b53d 6679 753d
000000b0: b101 393e 35f3 99be f7ae a6be e1e8 aebe
000000c0: 2207 28bf a55f c93f da39 e23e 86cf d2bf
000000d0: aafe df3f e4b6 9e3e 34eb d33f 6f0f d93f
000000e0: 9fd2 ce3e c244 aa3e e963 cd3f 3baa fb3d
000000f0: 3e05 54be c2ff 0240 eef6 d0bf e057 9a3f
1.1997545 -1.4998202 1.1020497 -0.54129016 -0.8213914 1.8221301 0.8647523 0.685568
0.5343868 0.035899628 -1.6553057 2.068705 1.9906611 0.34404737 -1.1030734 0.63866025
1.4233567 -1.7260317 -0.6177576 0.09505822 0.15126729 -0.28805226 0.41434333 1.7512108
0.95385 -0.56049544 0.6758613 2.0221531 1.459154 -1.285392 0.7979966 -1.0932207
1.8225191 1.1400965 1.1578084 -0.44860333 0.44773465 -1.2620207 0.99659055 -1.1212751
-0.33518112 -0.23068215 0.08846548 0.059930228 0.18067051 -0.30068365 -0.32555363 -0.34162048
-0.65635884 1.5732313 0.44184762 -1.6469581 1.7499592 0.3099891 1.6556153 1.6957835
0.40395066 0.33255583 1.6046115 0.12288328 -0.20705125 2.0468602 -1.6325357 1.2058067

l2.bias f4 [8]
00000000: df8d debd 236d 463f 2a8e 843f bdfd 483d
00000010: 471b e23e e144 61be 3560 833e dff7 dd3e
-0.108669035 0.7751028 1.0355885 0.04907011 0.44161436 -0.21998931 0.25659338 0.43353173

l3.weight f4 [22, 8]
00000000: 1597 963d 9da0 aa3d 4c05 a43e 2887 a23e
00000010: 1bfd 233e 4e7d 25be e12c 90bf bfd4 14c0
00000020: c5a1 d2bf 4613 443e 6823 6fbf 86ff c03e
00000030: c8d1 353f c2db 92be b001 15bf 1a94 b9bf
00000040: 252e 6dbc 9d9c c4bf 7508 0dbf 348e 2d3f
00000050: 47a9 3d3f 8688 a8be 7fd2 9cbf dd5e 40bf
00000060: 2744 923e 95fb 20be 9a6a d3bc 50b5 8abe
00000070: 927d cfbe def4 0c3d 69a4 13bf 0849 d7be
00000080: 8b2c 8e3e 94e0 bebf 5c6e f13e 0810 cabf
00000090: 61e5 d3bf f8b8 a73e 6659 0c3f 5277 1bbf
000000a0: 84c4 3ebf 71d0 cdbf a462 dd3d c364 89be
000000b0: 94db ea3d 90e7 bbbe 58fc 8b3e 5a4b 62bf
000000c0: a452 8ebf 7337 173f e966 dabf d7a4 b0bd
000000d0: 188e dcbe aade dabd 226d f7be 769e 363e
000000e0: 213c 13c0 8c50 f13e 5cd3 e63e d5f3 bb3e
000000f0: 4d34 bfbf 0a13 3ebd bab1 ccbe cc8f 14bf
00000100: 2ecb 123d 46bd 2f3f 4bc2 0f3f 67cd 45bf
00000110: 6b8b 07c0 b29b adbe 8afd 78bf ebe2 99bd
00000120: 01b4 973e 8d64 d8bf 9585 743e 8bd6 c7bf
00000130: c399 113e d3ef a33e 12b6 0abf e81d af3e
00000140: 0b09 06bf 16dc a03e 5879 a23e 5db8 e63d
00000150: 754b aebd 5557 6f3e 604d 01c0 c42d f7bd
00000160: 26f5 0bc0 d550 d4bf b462 d8bf 331b 103e
00000170: e878 823f 6fbd 91be abb9 f43d 36b8 fcbf
00000180: aca3 713d 510a febf f487 febf 6798 aabf
00000190: 72fe 98bd 3323 68be ef1f e33e 37da 2abd
000001a0: daaa b3be 1ee8 5fbf bae0 55bf 3f8b 21c0
000001b0: a2f6 9ebf fb70 1cbc 42fe 113f f9ef 353f
000001c0: 0425 473f bb73 c6bf 3033 233f 4ad6 91be
000001d0: c37a 5b3e fd8d b9be a5bf 7abf 786c e6bf
000001e0: 9cc0 f1bf 4994 093f 9c6b 4ebf 4045 aabf
000001f0: f99b 18c0 a8d4 ee3d f3e3 b73e a655 223f
00000200: 0361 93bf 9feb a63e f118 313f d511 fdbf
00000210: 4257 17be 9e9c 2a3e c1d2 663c 4170 7ebe
00000220: 00ac 2a3f ba12 12bf bcff ea3e ff1f 1bc0
00000230: 61f6 07c0 d3d8 c53d 5523 46bf afe5 6b3f
00000240: 6195 99bf 84ef 683f 1b2d efbf e9fc 413f
00000250: 8d90 08bf 140f 8cbe 7dfb 44bf 164b 0fc0
00000260: 50e5 15c0 d60d 4e3e 994f d7bf 5a9f 10bf
00000270: 80d7 cebe 93d9 883e e2b3 4c3f 8eb1 95bf
00000280: c0c3 833e 1126 793d 8a44 d8be a981 95bf
00000290: c56e 81be d6a5 8d3e fa57 06c0 b0b1 753f
000002a0: 70fb 0bc0 5dab 373f 4a79 aa3e 1793 223f
000002b0: 06d9 633e 23ae 953d 3880 1ac0 2678 dabf
0.07353035 0.08331416 0.3203529 0.3174374 0.16014521 -0.16161081 -1.1263696 -2.325485
-1.6455618 0.19147977 -0.934134 0.3769495 0.71023226 -0.28683287 -0.582057 -1.4498322
-0.014476334 -1.5360295 -0.5509103 0.6779511 0.7408642 -0.3291666 -1.2251738 -0.7514475
0.2856762 -0.15720971 -0.025807668 -0.27091455 -0.4052549 0.03441321 -0.57672745 -0.42047906
0.2776836 -1.4912286 0.4715451 -1.5786142 -1.6554376 0.32758307 0.5482391 -0.60728943
-0.7451861 -1.6079236 0.1080983 -0.26834688 0.114676625 -0.36700106 0.2734096 -0.8839623
-1.111897 0.59068984 -1.7062656 -0.08625191 -0.4307716 -0.10687001 -0.4832545 0.17833886
-2.300545 0.47131765 0.4508313 0.36709467 -1.4937836 -0.046404876 -0.39979345 -0.58031917
0.0358383 0.68648183 0.5615584 -0.77266544 -2.1178844 -0.3390785 -0.9726187 -0.07513984
0.2962952 -1.6905686 0.23879083 -1.5612348 0.14218812 0.3201891 -0.5418407 0.34202504
-0.5235755 0.31417912 0.31733203 0.11265633 -0.08510486 0.23373158 -2.0203476 -0.12069276
-2.1868377 -1.6587168 -1.6905122 0.14072876 1.0193148 -0.2846484 0.11949476 -1.9743717
0.05899398 -1.9846898 -1.988524 -1.332776 -0.074704066 -0.22669677 0.443603 -0.041712012
-0.35091287 -0.8746356 -0.8354603 -2.524124 -1.2419016 -0.009548421 0.5702859 0.71069294
0.77790856 -1.5504068 0.6374998 -0.28483802 0.21433549 -0.3624114 -0.97948676 -1.8001852
-1.8886905 0.5374189 -0.8063295 -1.3302383 -2.3845198 0.11661655 0.359161 0.6341194
-1.1513981 0.3260164 0.6917868 -1.9771067 -0.1477938 0.16661307 0.014088334 -0.24847509
0.666687 -0.57059824 0.45898235 -2.423828 -2.1244128 0.096604966 -0.7739766 0.92147344
-1.1998712 0.9099047 -1.868564 0.75776535 -0.53345567 -0.27355254 -0.7694624 -2.238958
-2.3421211 0.20122465 -1.6821166 -0.5649315 -0.40398788 0.26728496 0.7996198 -1.169481
0.25735283 0.06082732 -0.4223979 -1.1680194 -0.25279823 0.27665585 -2.0991197 0.95974255
-2.1872215 0.71745855 0.3329566 0.6350569 0.22250757 0.073086046 -2.4140759 -1.7067916

l3.bias f4 [22]
00000000: 89ed bfbe fe0b d5be ccdf 6e3b b47e 5bbe
00000010: 1d13 ca3d ba19 a63e 1bb7 883e a728 543d
00000020: fe6f 58be c0a2 eabe 2fee 16be 223a 9fba
00000030: 40bc 683c 6c67 e23d 0d03 cebe 1328 c4be
00000040: c8cf b73e f0bc 133f 12b7 7b3d f92e 6f3e
00000050: e033 88bd 1087 54be
-0.37485912 -0.41610712 0.0036449311 -0.21435052 0.09866927 0.32441503 0.26702198 0.05179658
-0.21136472 -0.45827293 -0.14739297 -0.0012148062 0.014205039 0.110548824 -0.40236703 -0.38311824
0.35900712 0.5771017 0.061453886 0.23357762 -0.06650519 -0.20754647
